model/regression_model.pth (torch, 6101 bytes, 3 tensors)

fc1.weight f4 [75, 13]
00000000: 0999 613e 3246 f33c e934 43be efab 8dbe
00000010: ba80 41be 8644 34bd 3a74 5e3e 099e 82be
00000020: 1a93 29bd 2c2a 30bd c43d 2d3e ad4b a3bd
00000030: 305c 763e 1dba b33d e7d9 073e daaa 53be
00000040: 4213 383e c923 8e3e 806e 51be 8ccb 3bbe
00000050: 1c39 4cbe 69c5 893d 4290 373e 456f 8f3e
00000060: 2635 f03d 5ce4 90bd cabb b93d b068 05be
00000070: cc97 e43c ada4 873c 4dbb 8e3c abc3 833e
00000080: 678a 80be 2743 5d3e 14e0 383e d488 13be
00000090: d4ea 88be a9b9 893d 481c abbd 9d21 433e
000000a0: 4054 1a3d 5249 15be f0bb 323e 0abc 4cbd
000000b0: e915 af3d b778 133e fd6e 87bd 753c 5abc
000000c0: e8d9 66bd 9d28 843e fe1e d53c 9aee ebbd
000000d0: d54c 513e 6284 64be 4e00 3dbe 66ac 8a3e
000000e0: bcd7 2c3e d382 f23d 2349 8abe 1f11 8bbe
000000f0: 2c35 aabd 510f 563d d487 8b3e a11a abbd
00000100: 0b57 0dbe 9121 30be ba54 85be 5462 8abe
00000110: 3c85 8a3e 80d5 5cbe 69f9 7ebe 0508 5cbe
00000120: 4c9a 183e fe57 72bd 12da 38be c4ef 733e
00000130: 7645 52be 64f1 953c d48c 5a3d 5bde 57be
00000140: 67c0 bfbc dbe0 4dbe f5cf 22be 19d4 033e
00000150: 68f0 76bd 0eca 8dbc 3e5a c9bd 11cd 023e
00000160: d927 533e 4d6e 803e 623f 1e3e c7d0 f8bd
00000170: 166c 3fbd 21ff c63d 40c6 4abe 82a1 66be
00000180: 4d68 883d 47c2 74be 44b3 093e a5d6 21be
00000190: fef3 ee3c a276 2fbe 88dc 723d b1b0 78be
000001a0: f561 50bd e393 2abe 0cfc b8bd 121c 093d
000001b0: 0e2c 6e3c ee79 b13d 7ac4 123d 9ef4 c6bd
000001c0: 0b1f 643e 4641 8fbc b637 39be 2699 28be
000001d0: 1971 9c3d 38db 04be c57d 373d 120b 6abd
000001e0: ce16 e43c 4520 91be 6226 75be 5bba 843e
000001f0: 1365 dfbd df9b 623e 68cd 1ebe 8cf0 623e
00000200: 3ff7 aabd 6407 8cbd 2951 6ebe 4ec6 85bd
00000210: 009c 7a3d 43b2 2b3e 53b8 873d 2437 52bd
00000220: 1307 4c3e aefd b6bd f8d2 bfbd bc12 0a3e
00000230: 3ac5 f03d 8e2f 17be 3800 923d cd52 823e
00000240: 252b d13c 6842 6fbe 0303 7d3d 2d1a 5ebd
00000250: d604 113e 1747 5c3e ec20 18be 9ccc 473e
00000260: 4724 fc3b d60b eb3d 1251 243e dfcd aa3d
00000270: 054d e8bc 4b02 32be 0376 47bc e99d 06be
00000280: 8059 07be ac7a 3e3e ad1b 143e 4dfc 59be
00000290: 2095 3f3b a208 d1bd b182 363e be3c 3a3e
000002a0: fccd 00be 9721 28be adc8 81be 3c06 53be
000002b0: 9f74 a13d 311b ad3d 0dd3 453e 63f8 87bd
000002c0: 8c9f c8bc af81 d13d afd4 ccbd 3874 573e
000002d0: e2b2 343e fcbb 76be 0501 30be 10da 1bbe
000002e0: 7211 30be 185a 873e 68d7 593e c9e3 0ebe
000002f0: 9cb8 e63d 72ad 8ebd 5e8f 243e fdaf adbd
00000300: 7db5 503d fdcb 1c3e 2824 07be 4974 16be
00000310: b15f 7fbe 54ef f73d 9dea 713e a11e d2bd
00000320: 79fa 453d 606b 2cbe 58f9 813d f7ca a0bd
00000330: 8462 6cbe 0406 d2bd b732 2b3e f6a7 853e
00000340: 1a34 3fbd 362d 70be 19a8 04be 330c 5d3c
00000350: d50d 63be a790 f9bd d5ca 3cbe 4e6e 213c
00000360: 72b8 df3d 68ad 623e 74b0 38be 90c3 0ebe
00000370: 8321 d13d ffc2 503e 9d1f 563e cc76 e0bd
00000380: 9092 5ebd 9a10 153e 6428 7abe ee64 7d3e
00000390: 0635 f93d fe57 fbbd dd11 863e a6fd 533a
000003a0: 8472 06be 461b bc3d 1c6d 04bd b3ae 913e
000003b0: ba73 473e 13f3 32be a42f 1fbe 5c74 6cbd
000003c0: dd0e 44be 653a 51be 599b 763e 5b18 35be
000003d0: a97b 5c3e dc85 5b3e e065 843c 3792 6b3e
000003e0: 6d01 50be 9eb3 8dbe b65f 39ba 7971 723d
000003f0: 39f2 593e 1ebb 0cbd 78fa 80be 570e 16bd
0.22031035 0.029696558 -0.19063152 -0.27670237 -0.18896762 -0.04401066 0.21724024 -0.25511196
-0.041400053 -0.04300897 0.16918093 -0.079734184 0.24058604 0.08775733 0.13266717 -0.20670643
0.17976096 0.27761677 -0.20452309 -0.18339366 -0.1994366 0.06727106 0.17926124 0.2801458
0.11728887 -0.07074806 0.09069021 -0.13028216 0.027904414 0.016558016 0.017423296 0.2573522
-0.25105593 0.21607648 0.18054229 -0.14407665 -0.2674166 0.06724865 -0.083550036 0.19055791
0.037678003 -0.1457875 0.17454505 -0.049984016 0.08549101 0.14401518 -0.06612966 -0.013320078
-0.056360155 0.25812235 0.026015755 -0.11520119 0.20439465 -0.22316125 -0.18457147 0.27084655
0.16879171 0.11841359 -0.27008924 -0.271615 -0.08310923 0.0522607 0.27252066 -0.083546884
-0.13802736 -0.17200305 -0.26041204 -0.27028143 0.27054775 -0.21565819 -0.2489983 -0.21487434
0.1490261 -0.059165947 -0.18051937 0.23821932 -0.2053431 0.01830358 0.05335696 -0.21080916
-0.023407174 -0.20105307 -0.15899642 0.12873878 -0.060287863 -0.017308261 -0.098316655 0.12773539
0.2062067 0.25084153 0.15453866 -0.12149196 -0.04673394 0.09716631 -0.19802189 -0.22522548
0.06660519 -0.23902236 0.1344729 -0.15804537 0.029169079 -0.17135099 0.059292346 -0.24286152
-0.05087467 -0.16657977 -0.09032449 0.033474036 0.014536871 0.08665834 0.035831906 -0.09714626
0.22277467 -0.01748718 -0.18087658 -0.16464671 0.07638759 -0.1297425 0.044797678 -0.057139464
0.027842905 -0.28344932 -0.23940423 0.25923428 -0.1090795 0.22129773 -0.15508044 0.22162074
-0.0834794 -0.06837347 -0.23273148 -0.06531964 0.06118393 0.1676722 0.06626954 -0.051322117
0.19924574 -0.08935104 -0.09366411 0.13483709 0.11756368 -0.14764234 0.07128948 0.25453797
0.025533268 -0.23365176 0.06177045 -0.054224182 0.14162001 0.21511494 -0.14856309 0.19511646
0.0076947543 0.11476867 0.16046551 0.08340048 -0.028357038 -0.17383687 -0.012174132 -0.13146175
-0.13217735 0.18601483 0.14463682 -0.21287651 0.0029233173 -0.10206725 0.17823292 0.18187234
-0.12578577 -0.16419064 -0.25348416 -0.20607847 0.07883572 0.08452452 0.1931879 -0.06639173
-0.02449014 0.10229813 -0.10001504 0.21040428 0.17646363 -0.24095148 -0.17187889 -0.15219903
-0.17194155 0.26435924 0.21273577 -0.1395408 0.1126568 -0.06966676 0.16070315 -0.08480833
0.05095433 0.1531219 -0.13197386 -0.14692797 -0.24938847 0.12106195 0.23624654 -0.10259748
0.048334572 -0.16837835 0.06346387 -0.078512125 -0.23084456 -0.10255054 0.16718565 0.26104707
-0.046680547 -0.23454747 -0.12954749 0.013491678 -0.22173245 -0.12185793 -0.1843675 0.009852959
0.10923852 0.22136462 -0.18036062 -0.13941789 0.1021147 0.20386885 0.20910497 -0.10960159
-0.05433899 0.14557114 -0.2442947 0.24745533 0.121683165 -0.122726426 0.26185504 0.0008086808
-0.13129622 0.091848895 -0.032330617 0.28453597 0.1947774 -0.17475538 -0.15545517 -0.057728156
-0.19146295 -0.20432432 0.24082698 -0.17685072 0.21531548 0.21437782 0.016161859 0.23004995
-0.20313044 -0.276761 -0.0007071452 0.059190247 0.21283807 -0.034358136 -0.25191092 -0.03663477

fc1.bias f4 [75]
00000000: 8209 083e 65e4 663e 9656 38be 4ce9 20be
00000010: de3e 003d 3e59 90bd 3c5f 023d dea3 5abe
00000020: 25ed 99bd 99b9 333e 7ef3 70bc 48da c43d
00000030: e251 613e 53b1 40be ef11 123e 32b5 0dbe
00000040: 709c 6cbd e18b 74bc 62e5 2ebe c9bc 353e
00000050: dccd 70be 6f8b 8fbc 5441 803d faaf 5abe
00000060: 6284 3ebd 94cb 81bd 0aff 7b3e f715 883e
00000070: 296e 6e3e 1e69 8b3e ddd5 5cbe 2530 48be
00000080: fe7a 833e a706 32be 4325 273e a22a 6cbd
00000090: d281 1f3e 35cc 80be 2cf6 66bc fed3 65be
000000a0: 5beb 853e 0ebc 893d e04c a63d 35e0 373d
000000b0: ace8 923a 64b8 133e 8db2 84bd 94d4 13be
000000c0: d6d1 ae3c 0cc5 043e be01 45be 1d6a b5bd
000000d0: 1159 a1bb 06cf 583e e2bc 733e f466 e9bd
000000e0: 7363 5c3e 0859 243e 379c 5c3d a27f 4fbe
000000f0: dc7b 04bd 9f78 95be ba89 93bd 9a29 983d
00000100: 6eb3 063e 2d81 523e 2e5c 32bd 744c e0bd
00000110: 1def 7bbe 8360 22be cbdc 3abb e7f0 6b3e
00000120: 82ab 14be 7618 69be 4802 ebbd
0.13284877 0.22548063 -0.1800178 -0.15713996 0.031309955 -0.070482716 0.031829104 -0.21351573
-0.07515935 0.17551269 -0.014706491 0.09611946 0.22003892 -0.18817644 0.14264654 -0.13838652
-0.057766378 -0.014925928 -0.1707969 0.17747797 -0.23516029 -0.017522542 0.0626246 -0.21356192
-0.04651297 -0.063376576 0.24609008 0.26579258 0.2328421 0.27228636 -0.21565957 -0.19549616
0.25679773 -0.1738535 0.16322808 -0.057657845 0.15576866 -0.25155798 -0.014096778 -0.2244415
0.26156124 0.06725322 0.081201315 0.044891555 0.0011208258 0.14425808 -0.06479368 -0.14436561
0.021340292 0.12965792 -0.19238946 -0.0885813 -0.0049239476 0.21172723 0.23802522 -0.1139659
0.21522312 0.16049588 0.053859916 -0.20263532 -0.032344684 -0.2919359 -0.07204004 0.0742981
0.13154384 0.20557089 -0.04354494 -0.10952082 -0.24602933 -0.15857129 -0.002851295 0.23041116
-0.1451855 -0.22763237 -0.114750445

output_layer.weight f4 [1, 75]
00000000: 53f0 e6bb bb40 893d 244b 11bd 6adb bfbd
00000010: 05e6 88bd 1b11 d63d 82a1 f1bc 605f 49ba
00000020: d34f b93d 8972 bbbd 654c 4e3d f0a3 e63d
00000030: d188 0f3d b77b 80bd d827 77bd a178 4abd
00000040: f713 dd3d 1aec 623d d5d6 f43d 2a29 91bd
00000050: 1257 c03d 449f 85bd d2b6 ee3c 94c6 7a3d
00000060: 9346 abbd a218 833d f5b3 1d3d e148 c1bc
00000070: a4ea fa3d aac6 583e 53a9 eabc b40d d43b
00000080: fc99 92bd a501 d23d 1794 853d 0bb7 e73d
00000090: cf26 b33d ffe5 b4bd 116c 50bd 1004 a3bd
000000a0: c75a dcbd 12e6 ebbd 7864 a0bd a803 973d
000000b0: abc5 a83d f6cc 7fbd 975e e8ba 8e8e a73d
000000c0: e2fa 17bc 4a3e 54bd d6ec dcbd aa21 21bd
000000d0: d75b 80bd a60a e73b 7ece 8e3c c78a 58bd
000000e0: a4a1 57bd 3c7a babc ddec 133d 55bf d23c
000000f0: 5912 d5bd a8a7 29bc ee8a 9e3d 51d9 d13d
00000100: 285c 6d3d cf81 7cbc 0e4c 8d3d d637 8fbd
00000110: 86ce d2bd 6848 e3bc c900 d4bc 2e37 b5ba
00000120: 76a1 49bd a080 f43c 6d57 c8bc
-0.007047692 0.067017995 -0.03547205 -0.09368022 -0.06684498 0.10452481 -0.029495958 -0.00076817535
0.090484284 -0.09152705 0.050365824 0.11261737 0.035042588 -0.06273597 -0.060340732 -0.049431447
0.107948236 0.055400945 0.119550385 -0.070879295 0.09391607 -0.06524518 0.02913991 0.061224535
-0.0836307 0.06401183 0.0385017 -0.023594322 0.122517854 0.21169534 -0.028645193 0.00647136
-0.071582764 0.1025422 0.065223865 0.113142096 0.087476365 -0.08832931 -0.05088431 -0.07959759
-0.10759502 -0.11518492 -0.07831663 0.07373744 0.08240827 -0.062451325 -0.0017728385 0.08181487
-0.009276124 -0.051817216 -0.1078736 -0.039338745 -0.06267517 0.00705083 0.017432448 -0.052866723
-0.052644387 -0.022763364 0.036114562 0.025726 -0.1040389 -0.010354914 0.077413425 0.10246528
0.057949215 -0.015411808 0.06899272 -0.06993072 -0.102932975 -0.027744487 -0.02587928 -0.0013825649
-0.049226247 0.02984649 -0.02445575
